models/task_c/onnx/task_c_spans.onnx (onnx, 36341 bytes, 2 tensors)

model.start_head.bias f4 [10]
0.02492736 0.017884871 0.006221793 0.081792265 -0.004972872 -0.0063795308 -0.0071492763 -0.0049393037
0.06863113 0.06344406
00000000: 7634 cc3c 4b83 923c 2fe0 cb3b b482 a73d
00000010: 79f3 a2bb 620b d1bb 7a44 eabb e2d9 a1bb
00000020: 7a8e 8c3d f6ee 813d

model.end_head.bias f4 [10]
0.0022796302 0.04508117 0.053472146 0.024281483 -0.043867305 0.0051924074 -0.037350107 -0.0063389842
0.07765891 0.04514011
00000000: d965 153b 08a7 383d 9c05 5b3d f6e9 c63c
00000010: 34ae 33bd 1225 aa3b 6dfc 18bd 41b7 cfbb
00000020: a20b 9f3d d6e4 383d
